src/MachineLearning/model/transferLearningRetrofitting_MobileNet/trainedModel/pose_classifier.tflite (tflite, 27616 bytes, 6 tensors)

dense_2/bias f4 [5]
000000 21 e2 23 bd 4a 30 f2 3d d9 82 13 be fb bd a0 3c
       -0.040010575 0.11825617 -0.14405383 0.01962184
000010 df 1d 3e bc
       -0.0116038015

dense_1/bias f4 [64]
000000 06 19 be 3d af 7f 60 3e 31 03 43 bd cb a0 83 3d
       0.092821166 0.21923707 -0.047610465 0.06427153
000010 3a 80 16 bc e6 3d 90 3d 81 95 a2 3d 52 05 6a 3d
       -0.009185845 0.07043056 0.07938672 0.05713398
000020 f9 29 58 3d 6a 0a ad 3d ec e5 d0 3d 76 1e 3f 3e
       0.052774403 0.08449252 0.10200104 0.18663964
000030 6d 35 76 3b 88 94 61 3d a6 ec 80 3d b5 61 db 3d
       0.0037568465 0.05507329 0.06295137 0.107119955
000040 d3 65 62 3d 89 59 2b 3d 7a cc 93 3d db 8c 91 3c
       0.05527289 0.041833434 0.07216735 0.01776736
000050 d2 d0 9f 3d 7d ef eb 3d 80 59 26 b6 84 5b fa 3c
       0.07803501 0.11520288 -2.4788023e-06 0.030561216
000060 55 ee a8 3d 3f 3c 68 3d 16 0c c5 3c 88 c0 6a 3c
       0.08248583 0.05669808 0.024053615 0.01432813
000070 f2 da fe 3d f0 53 bb 3d 08 7d e5 3d 97 39 76 bc
       0.12444104 0.09146869 0.112054884 -0.015028379
000080 e7 1d 26 3d 7e 53 ac 3c c8 57 6b 3d 65 a2 a2 3d
       0.04055586 0.021035906 0.05745676 0.079411305
000090 fa d5 ab 3d 67 f3 1f 3e 5f a1 1e 3d 5e 0f ff 3c
       0.08390422 0.15620194 0.038728114 0.031135257
0000a0 39 70 a0 3d 80 85 c4 3d 67 76 84 3d 92 c6 87 3d
       0.07833905 0.095957756 0.06467896 0.06629671
0000b0 36 62 74 3d 23 06 d4 3d 88 86 8f 3d e8 de f3 3d
       0.059663974 0.10352733 0.07008082 0.1190775
0000c0 bf 8b b0 3d f7 55 b2 3d 8e 49 44 3d 3d a1 a8 3d
       0.086204045 0.08707803 0.04792171 0.08233879
0000d0 44 bd 7a 3d a3 ba 06 3e ef 28 bc ba 92 af 5e 3d
       0.061215654 0.13157134 -0.0014355461 0.054366656
0000e0 10 88 8b 3d cf 61 94 3c bc 67 05 bc f9 e6 da 3c
       0.06813061 0.018113045 -0.008142408 0.026721464
0000f0 b8 02 d3 3c 1b eb 8c 3c ab 33 a9 3d eb 77 9f 3d
       0.025758132 0.01720195 0.08261808 0.077865444

dense/bias f4 [128]
000000 80 3a b4 3d 2c f1 86 3c 56 a2 7e 3d 5e d7 81 bb
       0.088002205 0.016472422 0.062166534 -0.0039624413
000010 da f1 d6 bc 94 25 56 3c c8 62 06 3d 0a ba 86 bd
       -0.02623837 0.013070483 0.03280905 -0.06578453
000020 ff 27 30 bc d0 38 bc 3d 47 75 fa bc e1 81 3f 3d
       -0.010751723 0.091905236 -0.0305735 0.04675472
000030 32 0b 5a bd e0 d2 54 3d 69 79 a9 3b e5 8e 52 bd
       -0.053233333 0.05195892 0.005171944 -0.051405806
000040 be cb 22 3d dd 96 5e 3d 38 87 73 3d 6c be 9e 3d
       0.039745085 0.054343093 0.059455127 0.07751164
000050 91 62 a6 bc f7 28 65 3c 54 40 01 bd 46 a0 d3 3c
       -0.020310672 0.013986818 -0.03155549 0.02583326
000060 de 6a 1b 3d ba e4 13 bd 62 66 a8 bb f8 3d 94 bc
       0.037943713 -0.036106803 -0.005139158 -0.018095955
000070 e2 5a d9 3d 7b 87 23 3c 59 9e 38 3d db 80 87 3d
       0.10613038 0.0099810315 0.045072887 0.06616374
000080 ee e6 24 3d dd 91 c5 bc 5c e8 63 3d f6 0a 08 3d
       0.040259294 -0.024117405 0.055641517 0.03321358
000090 63 13 dd bc a4 2e a7 3c 14 8a a3 3c 2d 41 fa 3c
       -0.026986783 0.020407982 0.019963302 0.030548656
0000a0 9c cf 0c 3d e6 20 60 bc 5f 9b 67 3d 30 46 90 3d
       0.03437768 -0.013679719 0.056544658 0.07044637
0000b0 2d 42 1a 3d 44 23 85 3c 0b 74 2a bd dd 6d 35 3d
       0.037660766 0.016252168 -0.041614573 0.044294227
0000c0 d3 18 13 bd 0c 0c 33 3d 88 36 82 3b f1 01 6b 3d
       -0.035912346 0.04371266 0.003973786 0.0573749
0000d0 b8 32 58 3d 3d 39 6f bc 0d eb 28 bc f0 c4 50 3c
       0.052782744 -0.014601049 -0.010309947 0.012742266
0000e0 6d ad e8 bc df ea 80 bc 45 34 a8 3c bd 0f 59 3d
       -0.028403008 -0.015736995 0.020532737 0.052993525
0000f0 28 ff 27 3d e1 5d 3c 3d 38 75 4c 3c 72 37 20 3c
       0.04101482 0.045987967 0.012479119 0.009778844
000100 70 4f b6 bb 7c f6 03 bd d4 56 44 bc 76 a3 b0 3d
       -0.005563669 -0.032217488 -0.011983592 0.08624928
000110 4d c9 3d 3c 7d 3c 25 bd 75 e4 cd bb 05 d3 7c bc
       0.011583638 -0.04034089 -0.0062833377 -0.01543117
000120 9f b7 5e 3c 63 60 ff bc d8 63 8e 3c 1d b1 54 bc
       0.013593583 -0.03117389 0.017381594 -0.01298168
000130 32 a3 98 bb 9d 0a d5 3c 27 be 38 bc 94 73 8e 3c
       -0.0046581263 0.026006037 -0.011275805 0.017389096
000140 c9 3c 94 bc 72 5e 4b 3c c5 45 96 3c 36 d2 93 3d
       -0.01809539 0.012412654 0.018343816 0.07217829
000150 86 53 54 3d 3e b2 bc 3d f1 7d 42 3d 20 36 81 3c
       0.051837467 0.092136845 0.04748339 0.01577288
000160 74 f4 5e 3c 45 b8 69 3d 65 8d c3 3c 86 a2 36 3d
       0.013608087 0.0570605 0.023871133 0.04458859
000170 7d 91 9f 3b 38 51 df 3b a4 84 cc bb a1 99 b4 3d
       0.0048696385 0.006815102 -0.006241398 0.08818365
000180 0b 25 0a bc ee d6 c8 3c 37 d7 2e bd 8d 08 28 bd
       -0.008431683 0.024516549 -0.042685714 -0.04102378
000190 2c c9 a1 3d 02 c4 33 3d d2 ca 22 bd 29 f5 47 3d
       0.078996986 0.0438881 -0.039744206 0.048817787
0001a0 75 d6 a3 3c d6 57 d9 38 17 34 3b 3c 83 ad 03 3d
       0.019999722 0.00010363727 0.011425993 0.032147896
0001b0 d8 78 1b bc f6 8e bb 3d 3d cd 84 bd 61 f9 39 bc
       -0.009489261 0.09158127 -0.064844586 -0.0113509605
0001c0 7d 7c 4a bd 8f 77 ac ba 66 ae af 3c ff d2 f4 bc
       -0.049435128 -0.001315819 0.021445464 -0.029885767
0001d0 d5 b2 84 3c ef ff ce 3b 0b 4a 17 3d 4f 61 29 bd
       0.016198555 0.0063171308 0.036935847 -0.041352566
0001e0 d9 6a 8c bb 7f 2b 47 3d 8d 4b c7 3c 3f 18 df bc
       -0.004285198 0.048625465 0.024328018 -0.027233241
0001f0 d4 5f bc 3c ae cf 6e bd 55 00 0e 3d 47 53 72 3c
       0.022994913 -0.058303528 0.034668285 0.014790363

model/dense/MatMul i1 [128, 34] scale=0.0080008535 zero_point=0
000000 f2 ea d9 02 de ed f8 0f 05 e3 d6 09 01 05 ee fa
       -0.11201195 -0.17601877 -0.3120333 0.016001707 -0.272029 -0.15201622 -0.06400683 0.120012805 0.04000427 -0.23202474 -0.33603585 0.07200768 0.0080008535 0.04000427 -0.14401536 -0.04800512
000010 1b 12 f9 11 1d f4 e1 f6 fd 18 1d b8 0a e7 12 be
       0.21602304 0.14401536 -0.056005973 0.1360145 0.23202474 -0.09601024 -0.24802646 -0.08000854 -0.02400256 0.19202048 0.23202474 -0.5760614 0.08000854 -0.20002134 0.14401536 -0.5280563
000020 fd f4 f0 1a 15 27 f1 2c 08 1c 03 ff f0 08 f0 0a
       -0.02400256 -0.09601024 -0.12801366 0.20802219 0.16801792 0.3120333 -0.120012805 0.35203755 0.06400683 0.2240239 0.02400256 -0.0080008535 -0.12801366 0.06400683 -0.12801366 0.08000854
000030 ec fb d9 1b c8 fa f5 1b 00 f3 fb 0a df 28 f8 e7
       -0.16001707 -0.04000427 -0.3120333 0.21602304 -0.4480478 -0.04800512 -0.08800939 0.21602304 0.0 -0.104011096 -0.04000427 0.08000854 -0.26402816 0.32003415 -0.06400683 -0.20002134
000040 ec 23 fa e6 ff e3 01 dc fb f0 eb 05 f1 e8 0e f6
       -0.16001707 0.28002986 -0.04800512 -0.20802219 -0.0080008535 -0.23202474 0.0080008535 -0.2880307 -0.04000427 -0.12801366 -0.16801792 0.04000427 -0.120012805 -0.19202048 0.11201195 -0.08000854
000050 07 e7 17 02 01 1b 04 14 09 10 f7 0b e8 e1 fe fe
       0.056005973 -0.20002134 0.18401963 0.016001707 0.0080008535 0.21602304 0.032003414 0.16001707 0.07200768 0.12801366 -0.07200768 0.08800939 -0.19202048 -0.24802646 -0.016001707 -0.016001707
000060 ee be 05 0a f2 9a cd 13 fd 18 dd 07 0c fc df 09
       -0.14401536 -0.5280563 0.04000427 0.08000854 -0.11201195 -0.81608707 -0.40804353 0.15201622 -0.02400256 0.19202048 -0.28002986 0.056005973 0.09601024 -0.032003414 -0.26402816 0.07200768
000070 17 fa d7 0e 01 05 dd ee e5 ef ad f7 16 f1 ff 1c
       0.18401963 -0.04800512 -0.328035 0.11201195 0.0080008535 0.04000427 -0.28002986 -0.14401536 -0.21602304 -0.1360145 -0.66407084 -0.07200768 0.17601877 -0.120012805 -0.0080008535 0.2240239
000080 81 f0 fb 0e dc fc bf 13 fd 0f 0b 14 fc 1f 07 18
       -1.0161084 -0.12801366 -0.04000427 0.11201195 -0.2880307 -0.032003414 -0.5200555 0.15201622 -0.02400256 0.120012805 0.08800939 0.16001707 -0.032003414 0.24802646 0.056005973 0.19202048
000090 19 27 05 15 f8 10 e5 2a 03 20 f7 1f 17 27 06 fd
       0.20002134 0.3120333 0.04000427 0.16801792 -0.06400683 0.12801366 -0.21602304 0.33603585 0.02400256 0.2560273 -0.07200768 0.24802646 0.18401963 0.3120333 0.04800512 -0.02400256
0000a0 ff 0b 05 27 fc 36 15 f5 1e 23 c1 f8 c9 1b c7 01
       -0.0080008535 0.08800939 0.04000427 0.3120333 -0.032003414 0.4320461 0.16801792 -0.08800939 0.24002561 0.28002986 -0.5040538 -0.06400683 -0.44004694 0.21602304 -0.45604864 0.0080008535
0000b0 00 fb db 08 1f 12 ec 07 0a ef dd 08 24 02 ba f0
       0.0 -0.04000427 -0.29603156 0.06400683 0.24802646 0.14401536 -0.16001707 0.056005973 0.08000854 -0.1360145 -0.28002986 0.06400683 0.2880307 0.016001707 -0.5600597 -0.12801366
0000c0 10 c6 f5 21 d1 e3 0f 04 16 ff 06 15 fb e7 f4 f5
       0.12801366 -0.4640495 -0.08800939 0.26402816 -0.3760401 -0.23202474 0.120012805 0.032003414 0.17601877 -0.0080008535 0.04800512 0.16801792 -0.04000427 -0.20002134 -0.09601024 -0.08800939
0000d0 09 eb 1c ec 0b fd 1c f4 ee fb fb fa fa 0a 16 f4
       0.07200768 -0.16801792 0.2240239 -0.16001707 0.08800939 -0.02400256 0.2240239 -0.09601024 -0.14401536 -0.04000427 -0.04000427 -0.04800512 -0.04800512 0.08000854 0.17601877 -0.09601024
0000e0 16 26 05 33 0a ba 0d 32 d5 dd 10 02 dc 97 ee 20
       0.17601877 0.30403244 0.04000427 0.40804353 0.08000854 -0.5600597 0.104011096 0.40004268 -0.3440367 -0.28002986 0.12801366 0.016001707 -0.2880307 -0.8400896 -0.14401536 0.2560273
0000f0 0e 18 13 0d 06 10 14 17 f4 ff 1d 21 eb 30 13 16
       0.11201195 0.19202048 0.15201622 0.104011096 0.04800512 0.12801366 0.16001707 0.18401963 -0.09601024 -0.0080008535 0.23202474 0.26402816 -0.16801792 0.38404095 0.15201622 0.17601877

model/dense_1/MatMul i1 [64, 128] scale=0.0051326538 zero_point=0
000000 2a 04 58 e9 d9 eb 72 d7 e3 22 e0 0a 14 fb 19 fa
       0.21557146 0.020530615 0.45167354 -0.11805104 -0.2001735 -0.10778573 0.5851225 -0.2104388 -0.14884695 0.17451023 -0.16424492 0.051326536 0.10265307 -0.025663268 0.12831634 -0.030795923
000010 fe e4 e9 f2 d2 c3 fa 2a da 0f 38 32 1f e0 e7 30
       -0.0102653075 -0.14371431 -0.11805104 -0.071857154 -0.23610207 -0.31309187 -0.030795923 0.21557146 -0.19504084 0.07698981 0.28742862 0.2566327 0.15911226 -0.16424492 -0.12831634 0.24636738
000020 fa 1d 49 0d c9 fc 48 1d 5d 50 0c 15 c7 20 21 e9
       -0.030795923 0.14884695 0.37468374 0.0667245 -0.28229594 -0.020530615 0.36955106 0.14884695 0.4773368 0.4106123 0.061591845 0.10778573 -0.29256126 0.16424492 0.16937758 -0.11805104
000030 f2 0c 26 e1 60 e6 ec 0a fa dd f5 31 ef ef 11 3a
       -0.071857154 0.061591845 0.19504084 -0.15911226 0.49273476 -0.133449 -0.10265307 0.051326536 -0.030795923 -0.17964289 -0.056459192 0.25150004 -0.08725511 -0.08725511 0.08725511 0.2976939
000040 00 15 2e 26 47 d7 cd 13 21 e4 4b f3 e7 ec 0b ed
       0.0 0.10778573 0.23610207 0.19504084 0.36441842 -0.2104388 -0.26176533 0.09752042 0.16937758 -0.14371431 0.38494903 -0.0667245 -0.12831634 -0.10265307 0.056459192 -0.09752042
000050 ef 2e e7 1a eb 38 0a 23 2c 0e 33 f6 42 03 f0 46
       -0.08725511 0.23610207 -0.12831634 0.133449 -0.10778573 0.28742862 0.051326536 0.17964289 0.22583677 0.071857154 0.26176533 -0.051326536 0.33875516 0.015397961 -0.08212246 0.35928577
000060 01 14 e4 ee ed 45 f0 fd 0b 2a 30 e0 d9 de e8 f5
       0.0051326538 0.10265307 -0.14371431 -0.092387766 -0.09752042 0.3541531 -0.08212246 -0.015397961 0.056459192 0.21557146 0.24636738 -0.16424492 -0.2001735 -0.17451023 -0.12318369 -0.056459192
000070 05 55 37 e4 e8 db 21 fe f6 f1 d9 0b e4 f0 0e 2c
       0.025663268 0.43627557 0.28229594 -0.14371431 -0.12318369 -0.18990819 0.16937758 -0.0102653075 -0.051326536 -0.07698981 -0.2001735 0.056459192 -0.14371431 -0.08212246 0.071857154 0.22583677
000080 26 11 44 fd ce 0c 45 e0 06 08 09 0e 2e d8 13 0f
       0.19504084 0.08725511 0.34902045 -0.015397961 -0.2566327 0.061591845 0.3541531 -0.16424492 0.030795923 0.04106123 0.046193883 0.071857154 0.23610207 -0.20530614 0.09752042 0.07698981
000090 19 34 0c 07 0e fe fe 10 23 3d 48 44 ff 2b 4a 2e
       0.12831634 0.266898 0.061591845 0.035928577 0.071857154 -0.0102653075 -0.0102653075 0.08212246 0.17964289 0.31309187 0.36955106 0.34902045 -0.0051326538 0.22070411 0.37981638 0.23610207
0000a0 35 43 2d 12 e6 1b 10 07 18 08 10 20 46 2c 3c 3a
       0.27203065 0.3438878 0.23096941 0.092387766 -0.133449 0.13858165 0.08212246 0.035928577 0.12318369 0.04106123 0.08212246 0.16424492 0.35928577 0.22583677 0.30795923 0.2976939
0000b0 31 48 f8 d8 43 e4 23 2f cc 31 df 25 ff e3 02 42
       0.25150004 0.36955106 -0.04106123 -0.20530614 0.3438878 -0.14371431 0.17964289 0.24123472 -0.266898 0.25150004 -0.16937758 0.18990819 -0.0051326538 -0.14884695 0.0102653075 0.33875516
0000c0 fd 01 07 f9 3e e0 c9 1e f2 f9 0d 23 f4 1b d8 03
       -0.015397961 0.0051326538 0.035928577 -0.035928577 0.31822452 -0.16424492 -0.28229594 0.15397961 -0.071857154 -0.035928577 0.0667245 0.17964289 -0.061591845 0.13858165 -0.20530614 0.015397961
0000d0 0e 29 38 fd 00 3d ed 06 14 14 15 f7 0b fe 2a 23
       0.071857154 0.2104388 0.28742862 -0.015397961 0.0 0.31309187 -0.09752042 0.030795923 0.10265307 0.10265307 0.10778573 -0.046193883 0.056459192 -0.0102653075 0.21557146 0.17964289
0000e0 18 25 3f 3d 0c 0f 13 08 ec 53 09 ee fe 33 1f 48
       0.12318369 0.18990819 0.3233572 0.31309187 0.061591845 0.07698981 0.09752042 0.04106123 -0.10265307 0.42601025 0.046193883 -0.092387766 -0.0102653075 0.26176533 0.15911226 0.36955106
0000f0 48 2f 1e d9 dc 32 07 de e3 57 ec 21 3e d4 51 07
       0.36955106 0.24123472 0.15397961 -0.2001735 -0.18477553 0.2566327 0.035928577 -0.17451023 -0.14884695 0.44654086 -0.10265307 0.16937758 0.31822452 -0.22583677 0.41574496 0.035928577

model/dense_2/MatMul f4 [5, 64]
000000 1e 60 0e bf 40 3a 2d 3e 8b 83 9a be 8d e4 bc 3e
       -0.55615413 0.16916752 -0.30178484 0.3689312
000010 f8 c9 e9 be 7e a6 1f bf 2d 51 ff be 74 b2 57 be
       -0.45661902 -0.6236342 -0.4986662 -0.21064168
000020 77 80 af 3e 5a 55 2c 3e 83 5f ac be cd 42 31 3d
       0.34277698 0.16829434 -0.3366662 0.043276597
000030 59 ba b4 3e a6 51 4c 3e 2f 09 12 3d 0f bd c2 3d
       0.35298422 0.19953021 0.03565329 0.09508716
000040 23 ed 8b 3d 11 cc dd 3e 5f af f4 be 22 cf ef 3d
       0.068323396 0.43319753 -0.47790048 0.11709429
000050 e4 da 53 3c 39 cf 9b 3e f2 78 46 3e 60 00 ce 3e
       0.012930606 0.30431536 0.19382074 0.4023466
000060 c0 fe b8 3e 7e e5 95 3e 0e af 04 bf 16 ca 56 3e
       0.3613186 0.2927665 -0.5182961 0.20975527
000070 08 bb 09 3d 63 01 4f 3e 7e 80 eb be 65 ae ca 3e
       0.033625633 0.20215373 -0.4599647 0.39586177
000080 58 1b ed be 55 ba 6e 3d e9 06 70 3e 94 33 ad be
       -0.46309924 0.05828317 0.23440136 -0.33828413
000090 8e 62 8c 3e 9d ca 5d 3e 46 b7 fb 3e c9 d2 b1 3e
       0.2741894 0.21659322 0.49163264 0.3473113
0000a0 3c a2 00 bf a4 db 69 3d d2 58 80 bd d1 21 df bd
       -0.5024755 0.05709423 -0.06266941 -0.10895122
0000b0 2c 64 93 bd 7f ba 5c bc 7e 1a 5e 3e 3e 9a 83 3e
       -0.07196841 -0.0134721985 0.21689793 0.25703615
0000c0 15 8d 8a 3e fe e1 41 bf b7 24 ad 3d 89 6a 04 bd
       0.27060762 -0.7573546 0.084542684 -0.032328162
0000d0 8c 36 a2 be f0 a4 1e 3e 9c 3e cd 3d 24 b6 05 bf
       -0.3168224 0.15492606 0.100217074 -0.5223105
0000e0 ed 04 12 bf b5 6b ce 3e 87 48 cb 3e c5 1f ec be
       -0.57038766 0.4031655 0.3970377 -0.46117988
0000f0 f2 ee 3a be f7 a2 61 3e 87 ce e6 be 3b 21 6a 3e
       -0.18255213 0.22034822 -0.45079443 0.22864239
000100 5b 39 a7 3e 18 9c 8a 3e c3 1f a5 be 9a 55 d2 be
       0.32660946 0.27072215 -0.32250795 -0.41080934
000110 da e9 f0 be 2b e6 50 be f2 9c e7 3e 04 aa 00 be
       -0.47053415 -0.20400302 0.45236927 -0.12564856
000120 89 d8 28 bf 1b 56 b4 bd b4 e9 0e 3f 21 45 25 3e
       -0.65955406 -0.08805486 0.5582535 0.16139652
000130 5d 02 13 bf 49 e3 7e 3e be c1 0e bf ca 35 fc bd
       -0.5742548 0.2489139 -0.5576438 -0.12314947
000140 6a 4e 13 3e ef b6 0a bf ac 48 05 3e 8e 7b 59 be
       0.14385381 -0.54185385 0.13016003 -0.21238539
000150 e6 39 0d 3f 25 88 0b be 7e e6 ef 3e 03 08 a3 be
       0.5516647 -0.13626154 0.4685554 -0.3184205
000160 2c 1b ad be 90 f4 34 bf d2 14 81 be 87 ef 9e be
       -0.33809793 -0.7068567 -0.25211197 -0.3104212
000170 5b 62 8c 3e 08 a0 ca be 7b 4f c2 3e a7 e4 d4 3d
       0.2741879 -0.3957522 0.37951264 0.103951745
000180 40 27 82 be b2 d7 06 3f 95 a5 b3 3e ec 42 ff be
       -0.2542057 0.52672875 0.35087267 -0.49855745
000190 96 61 d6 be b3 2c ad 3e 15 db d5 be 10 5d 07 bf
       -0.41871327 0.33823165 -0.4176871 -0.5287638
0001a0 5c 78 81 be 85 6c f9 bd 14 28 00 be 27 a8 03 bf
       -0.2528714 -0.121789016 -0.12515289 -0.51428455
0001b0 12 79 13 bf 9d b3 f6 be 9e d9 1a bf 0b b1 a4 3d
       -0.57606614 -0.4818391 -0.6048831 0.08041581
0001c0 ab 66 90 be fc c0 02 3e 55 40 88 3e 29 29 0a bf
       -0.2820333 0.1276893 0.2661158 -0.53969055
0001d0 aa 4f 05 3f fc c5 a2 3e 9f a8 db be f4 27 6a 3e
       0.5207468 0.31791675 -0.42902085 0.22866803
0001e0 8f fa 43 3e 0c 98 0c bf aa 31 b7 be bb 14 bc be
       0.1913855 -0.54919505 -0.35780078 -0.36734566
0001f0 f8 8d f1 3e eb cd ce bd d7 00 9e 3e 41 0b cf 3e
       0.47178626 -0.100978695 0.30860016 0.40438274
000200 74 86 f5 be f7 5d 29 bf 18 49 e2 3e da 9a f1 be
       -0.47954142 -0.66159004 0.4419639 -0.47188455
000210 63 71 b6 3e cb ef 08 3e 5d bd 0e bf 05 bc 50 be
       0.35633382 0.13372724 -0.55757695 -0.20384224
000220 7e fd df be f5 99 0d bf 71 91 c7 be 79 a6 3e bf
       -0.43748087 -0.55313045 -0.3897815 -0.7447277
000230 d0 5d c3 3e ca 1e ae 3e f6 5e 24 bf 5b 6a 97 be
       0.3815751 0.34007865 -0.642074 -0.2957333
000240 50 dc b8 3e df f7 be be 37 65 b4 3e e1 3c 03 3e
       0.36105585 -0.37298486 0.3523347 0.12816192
000250 84 19 c1 be 5c f4 d7 be ca 7b ae 3e 0e 92 a9 be
       -0.3771478 -0.4217862 0.3407882 -0.33119243
000260 bb 85 0e be 37 de a6 3e 43 20 d4 3e e7 35 a6 3e
       -0.13918202 0.3259141 0.41430864 0.32463
000270 81 a7 e4 be 0c 8a d3 be b1 bf 07 bf 49 d1 c7 3e
       -0.44659045 -0.4131626 -0.5302687 0.3902686
000280 30 12 ab 3e a1 5f a2 3e 6e 92 0f be 98 02 a4 bd
       0.33412313 0.31713584 -0.14020702 -0.08008307
000290 dd 78 ed be ab a1 0b bf c4 ab 05 bf a7 2f ce be
       -0.46381274 -0.5454356 -0.5221522 -0.4027073
0002a0 f2 d2 24 bf 37 d0 a2 be f3 b8 14 bf 83 62 b8 be
       -0.64384377 -0.3179948 -0.5809471 -0.36012658
0002b0 ea 9c eb be 41 d3 12 bf b9 63 44 3e a4 66 1b bf
       -0.46018153 -0.573536 0.19178666 -0.6070349
0002c0 db dc c6 be 4a f4 b6 3d 1e 43 8a 3e b8 05 0b bf
       -0.38840374 0.08933313 0.2700433 -0.543056
0002d0 98 46 10 bf 35 57 0e bf df 7e b0 3e 1e a5 2d 3e
       -0.5635772 -0.5560182 0.34471795 0.16957518
0002e0 ff bd ce 3e 66 78 24 be 3e ef ca 3e d5 7c 9a bc
       0.4037933 -0.16061553 0.39635652 -0.018858353
0002f0 bb 70 28 3e 27 08 b3 3e a3 69 f3 be cc 3e 22 bf
       0.16449253 0.34967157 -0.47541532 -0.6337707
000300 f0 b7 07 3d 32 ce 61 3e e9 ef f4 bc a3 be e6 bd
       0.0331344 0.22051314 -0.029899554 -0.1126683
000310 eb f9 a3 be 31 cc e8 3e 7b 24 09 be 55 65 19 3f
       -0.3202661 0.45468286 -0.13392822 0.59920245
000320 eb 0b 62 be a5 59 7f 3c 10 5c 16 3d df 4a 14 bd
       -0.22074859 0.015585338 0.03670889 -0.036204215
000330 14 85 f2 be 9c 99 21 bf 7d fb ff 3d 74 bd 98 3e
       -0.47367156 -0.63125014 0.124991395 0.2983204
000340 5d a9 7d bf 34 b7 6f be 9d d7 aa 3e 09 9d bd be
       -0.9908655 -0.2340973 0.33367625 -0.3703387
000350 fb 53 c4 bc db ac 88 3e 9b 04 ff bd bf 2a e8 be
       -0.023965826 0.26694378 -0.1245205 -0.45345113
000360 97 9e ad 3e 05 6b 9e 3e 33 0d 97 bd e5 45 c1 bc
       0.33910057 0.30941024 -0.073755644 -0.023592899
000370 6a 54 99 3e 10 44 44 3e a6 bc db 3e 76 d1 63 be
       0.29947215 0.19166589 0.42917365 -0.22247872
000380 07 87 0b bf ae e6 aa be 10 f0 9f be 8c df 27 3c
       -0.5450291 -0.3337912 -0.3123784 0.010246169
000390 9f a3 99 3e ac 2c 9d 3e b7 b4 a4 be 47 bf a6 bb
       0.30007645 0.30698144 -0.32169124 -0.00508872
0003a0 54 e6 90 3e 0d 20 fb 3e 54 60 b3 be 89 0e c5 3e
       0.28300726 0.4904789 -0.3503443 0.38487652
0003b0 c9 11 f6 3e fe 8d 1c 3e 08 10 0b 3e 3f e4 34 3e
       0.48060444 0.1528854 0.13580334 0.17665194
0003c0 aa 4e b7 3e 56 37 a0 3e 62 88 49 bf 76 e0 66 3e
       0.35802203 0.31292218 -0.7872373 0.22546563
0003d0 e4 1c d2 be 66 4b 80 3e f3 39 39 bf ff 9b 07 bf
       -0.41037667 0.25057524 -0.7235405 -0.52972406
0003e0 32 1d b6 3e d1 1e b5 bc 48 ea 93 be 11 1c 48 bd
       0.3556915 -0.022109421 -0.2888968 -0.04885489
0003f0 a5 47 a3 be 3d f5 cb bd 74 d0 09 bf d9 5f c3 be
       -0.31890598 -0.09958885 -0.538337 -0.38159063
